…
        "parameters": {
            "encoder_channels": "N/A",
            "decoder_channels": "N/A",
            "n_blocks": "N/A",
            "use_batchnorm": "N/A",
            "attention_type": "N/A",
            "center": "Identity()"
        }
    },
    "decoder.center": {
        "type": "Identity",
        "parameters": {
            "args": "N/A",
            "kwargs": "N/A"
        }
    },
    "decoder.blocks": {
        "type": "ModuleList",
        "parameters": {
            "modules": "<bound method Module.modules of ModuleList(\n  (0): DecoderBlock(\n    (conv1): Conv2dReLU(\n      (0): Conv2d(768, 256, kernel_size=(3, 3), stride=(1, 1), padding=(1, 1), bias=False)\n      (1): BatchNorm2d(256, eps=1e-05, momentum=0.1, affine=True, track_running_stats=True)\n      (2): ReLU(inplace=True)\n    )\n    (attention1): Attention(\n      (attention): Identity()\n    )\n    (conv2): Conv2dReLU(\n      (0): Conv2d(256, 256, kernel_size=(3, 3), stride=(1, 1), padding=(1, 1), bias=False)\n      (1): BatchNorm2d(256, eps=1e-05, momentum=0.1, affine=True, track_running_stats=True)\n      (2): ReLU(inplace=True)\n    )\n    (attention2): Attention(\n      (attention): Identity()\n    )\n  )\n  (1): DecoderBlock(\n    (conv1): Conv2dReLU(\n      (0): Conv2d(384, 128, kernel_size=(3, 3), stride=(1, 1), padding=(1, 1), bias=False)\n      (1): BatchNorm2d(128, eps=1e-05, momentum=0.1, affine=True, track_running_stats=True)\n      (2): ReLU(inplace=True)\n    )\n    (attention1): Attention(\n      (attention): Identity()\n    )\n    (conv2): Conv2dReLU(\n      (0): Conv2d(128, 128, kernel_size=(3, 3), stride=(1, 1), padding=(1, 1), bias=False)\n      (1): BatchNorm2d(128, eps=1e-05, momentum=0.1, affine=True, track_running_stats=True)\n      (2): ReLU(inplace=True)\n    )\n    (attention2): Attention(\n      (attention): Identity()\n    )\n  )\n  (2): DecoderBlock(\n    (conv1): Conv2dReLU(\n      (0): Conv2d(192, 64, kernel_size=(3, 3), stride=(1, 1), padding=(1, 1), bias=False)\n      (1): BatchNorm2d(64, eps=1e-05, momentum=0.1, affine=True, track_running_stats=True)\n      (2): ReLU(inplace=True)\n    )\n    (attention1): Attention(\n      (attention): Identity()\n    )\n    (conv2): Conv2dReLU(\n      (0): Conv2d(64, 64, kernel_size=(3, 3), stride=(1, 1), padding=(1, 1), bias=False)\n      (1): BatchNorm2d(64, eps=1e-05, momentum=0.1, affine=True, track_running_stats=True)\n      (2): ReLU(inplace=True)\n    )\n    (attention2): Attention(\n      (attention): Identity()\n    )\n  )\n  (3): DecoderBlock(\n    (conv1): Conv2dReLU(\n      (0): Conv2d(128, 32, kernel_size=(3, 3), stride=(1, 1), padding=(1, 1), bias=False)\n      (1): BatchNorm2d(32, eps=1e-05, momentum=0.1, affine=True, track_running_stats=True)\n      (2): ReLU(inplace=True)\n    )\n    (attention1): Attention(\n      (attention): Identity()\n    )\n    (conv2): Conv2dReLU(\n      (0): Conv2d(32, 32, kernel_size=(3, 3), stride=(1, 1), padding=(1, 1), bias=False)\n      (1): BatchNorm2d(32, eps=1e-05, momentum=0.1, affine=True, track_running_stats=True)\n      (2): ReLU(inplace=True)\n    )\n    (attention2): Attention(\n      (attention): Identity()\n    )\n  )\n  (4): DecoderBlock(\n    (conv1): Conv2dReLU(\n      (0): Conv2d(32, 16, kernel_size=(3, 3), stride=(1, 1), padding=(1, 1), bias=False)\n      (1): BatchNorm2d(16, eps=1e-05, momentum=0.1, affine=True, track_running_stats=True)\n      (2): ReLU(inplace=True)\n    )\n    (attention1): Attention(\n      (attention): Identity()\n    )\n    (conv2): Conv2dReLU(\n      (0): Conv2d(16, 16, kernel_size=(3, 3), stride=(1, 1), padding=(1, 1), bias=False)\n      (1): BatchNorm2d(16, eps=1e-05, momentum=0.1, affine=True, track_running_stats=True)\n      (2): ReLU(inplace=True)\n    )\n    (attention2): Attention(\n      (attention): Identity()\n    )\n  )\n)>"
        }
    },
    "decoder.blocks.0": {
        "type": "DecoderBlock",
        "parameters": {
            "in_channels": "N/A",
            "skip_channels": "N/A",
            "out_channels": "N/A",
            "use_batchnorm": "N/A",
…
